…
  RERANK:
    ENABLED: False
    K1: 20
    K2: 6
    LAMBDA: 0.3
  ROC_ENABLED: False
  SEQ_TEST: False
  TIMES: 1
  VERIF: False
[08/23 10:54:16] fastreid INFO: Full config saved to /home/huangju/codes/fast-reid/logs/BoT_verif_msmt17/config.yaml
[08/23 10:54:16] fastreid.utils.env INFO: Using a generated random seed 18207642
[08/23 10:54:17] fastreid INFO: Model:
BaselineVerifMemBank(
  (heads): EmbeddingHead(
    (pool_layer): AdaptiveAvgPool2d(output_size=1)
    (bottleneck): Sequential(
      (0): BatchNorm(2560, eps=1e-05, momentum=0.1, affine=True, track_running_stats=True)
    )
    (classifier): Linear(in_features=2560, out_features=0, bias=False)
  )
  (verif_model): VerifHead(
    (pool_layer): AdaptiveAvgPool2d(output_size=1)
    (bottleneck): Sequential(
      (0): Conv2d(2560, 1024, kernel_size=(1, 1), stride=(1, 1), bias=False)
    )
    (classifier): Sequential(
      (0): Linear(in_features=1024, out_features=512, bias=True)
      (1): BatchNorm1d(512, eps=1e-05, momentum=0.1, affine=True, track_running_stats=True)
      (2): Dropout(p=0.2, inplace=False)
      (3): PReLU(num_parameters=1)
      (4): Linear(in_features=512, out_features=256, bias=True)
      (5): BatchNorm1d(256, eps=1e-05, momentum=0.1, affine=True, track_running_stats=True)
      (6): PReLU(num_parameters=1)
      (7): Linear(in_features=256, out_features=128, bias=True)
      (8): BatchNorm1d(128, eps=1e-05, momentum=0.1, affine=True, track_running_stats=True)
      (9): PReLU(num_parameters=1)
      (10): Linear(in_features=128, out_features=64, bias=True)
      (11): BatchNorm1d(64, eps=1e-05, momentum=0.1, affine=True, track_running_stats=True)
      (12): PReLU(num_parameters=1)
      (13): Linear(in_features=64, out_features=32, bias=True)
      (14): BatchNorm1d(32, eps=1e-05, momentum=0.1, affine=True, track_running_stats=True)
      (15): PReLU(num_parameters=1)
      (16): Linear(in_features=32, out_features=16, bias=True)
      (17): BatchNorm1d(16, eps=1e-05, momentum=0.1, affine=True, track_running_stats=True)
      (18): PReLU(num_parameters=1)
      (19): Linear(in_features=16, out_features=2, bias=False)
    )
    (drop): Dropout(p=0.5, inplace=False)
  )
)
[08/23 10:54:18] fastreid.utils.checkpoint INFO: No checkpoint found. Training model from scratch
[08/23 10:54:19] fastreid INFO: Start training from epoch 0
[08/23 10:58:57] fastreid.utils.events INFO:  epoch/iter: 0/199  total_loss: 645.5  loss_bank_verif: 645.5  lr: 6.63e-05  max_mem: 1278M
[08/23 11:00:15] fastreid.utils.events INFO:  eta: 5:43:20  epoch/iter: 0/257  total_loss: 556.4  loss_bank_verif: 556.4  lr: 7.55e-05  max_mem: 3748M
…
